backend/models/grid_model.pth (torch, 197160 bytes, 4 tensors)

fc1.weight f4 [128, 378]
-0.52622014 -0.41954944 -0.40309614 -0.3065191 -0.23526117 -0.27451736 -0.23623285 -0.18925333
-0.22051327 -0.21518089 -0.13927162 -0.12883343 -0.0861651 -0.13532497 -0.14567722 -0.12946337
-0.058316328 -0.118234895 -0.006572341 -0.011442704 0.00025742952 -0.42050475 -0.42351776 -0.30970487
-0.34699714 -0.3346766 -0.23138349 -0.17220484 -0.17745589 -0.16916241 -0.07476211 -0.09075808
-0.057584137 -0.08590526 0.017568225 -0.026097044 -0.023362387 -0.0018349142 -0.042056605 -0.026322646
-0.034308836 -0.038117062 -0.5731395 -0.59592485 -0.41872975 -0.38191602 -0.37253037 -0.33556685
-0.27132922 -0.23514973 -0.14307602 -0.1819711 -0.104596436 -0.09972287 0.012967625 -0.024496872
-0.06425201 -0.010542875 0.033749558 -0.028090006 -0.027746918 -0.032677926 -0.04687605 -0.40773737
-0.34688592 -0.5424103 -0.42527086 -0.3516571 -0.3288838 -0.2257448 -0.20419775 -0.1539407
-0.12453499 -0.041154314 0.015908575 -0.017886864 -0.0049988427 0.0049461736 -0.06023033 0.0043784296
-0.08446392 -0.030378623 -0.046258163 0.01111689 -0.3890806 -0.26573348 -0.36467412 -0.36165014
-0.2989733 -0.27471706 -0.28018627 -0.14240573 -0.102662146 0.02076019 0.007075547 0.022801235
0.0648976 -0.008819519 0.0012535144 -0.031600967 -0.010159487 0.0011032493 -0.0072845975 -0.04078883
0.03531528 -0.33964285 -0.25297374 -0.27670133 -0.3418951 -0.26657173 -0.19420987 -0.25533196
-0.16572836 -0.076345 -0.15257002 -0.008912467 0.13907433 0.1596771 0.06774423 -0.026899066
-0.037019763 -0.050365906 -0.086718015 -0.027146144 -0.008651287 0.010426801 -0.3236738 -0.26151994
-0.294778 -0.30206293 -0.21910927 -0.05742736 -0.05976588 -0.06652288 0.040683974 0.09758116
0.25338474 0.2735025 0.23081538 0.042700548 0.020225648 0.030987142 -2.4738565e-05 -0.0647184
-0.01537827 0.1057609 0.074223824 -0.29859245 -0.26543793 -0.14516279 -0.2877886 -0.16540669
-0.10647847 0.02456644 0.095840566 0.07744623 0.25019282 0.19139981 0.30500376 0.31263128
0.081756204 0.109349616 0.029210467 0.012593213 -0.012039911 -0.016135292 0.0071311626 0.18161875
-0.21570659 -0.21228062 -0.1728021 -0.1365082 -0.07747811 -0.017550731 0.07162717 0.13113981
0.14909711 0.21584709 0.35074866 0.3826069 0.31587464 0.19217762 0.13507411 0.09923251
0.011809385 0.040545266 0.08820879 0.011446708 0.27394304 -0.19965401 -0.17902312 -0.14405508
-0.04359582 -0.055455163 0.06709255 0.0969261 0.14916632 0.25994116 0.4977568 0.4031502
0.50472945 0.4945669 0.23214884 0.13574882 0.08727076 0.099588715 0.1332283 0.11431959
0.08399275 0.31330007 -0.17370974 -0.23279046 -0.08141618 0.017811751 0.049912967 0.04592942
0.2391983 0.31701046 0.4598929 0.5431403 0.47516522 0.63944095 0.5293367 0.272061
0.23901385 0.13593805 0.16851275 0.23229942 0.10594387 0.16791517 0.38455337 -0.09367187
-0.19777587 -0.100651234 0.06029936 0.098178074 0.12922083 0.30581096 0.34708074 0.50807464
0.6443329 0.68769586 0.77850944 0.7736064 0.55835193 0.469792 0.17380103 0.18933928
0.17377242 0.10345419 0.25822058 0.3966119 -0.028328644 -0.18587871 -0.027914653 0.023057481
00000000: 5db6 06bf 2fcf d6be 9e62 cebe 12f0 9cbe
00000010: 4ee8 70be 8a8d 8cbe 06e7 71be a0cb 41be
00000020: 3bce 61be 6158 5cbe 389d 0ebe e9ec 03be
00000030: 5477 b0bd a192 0abe 692c 15be 0c92 04be
00000040: 1add 6ebd 2325 f2bd cb5c d7bb 2e7a 3bbc
00000050: 9bf7 8639 664c d7be 52d7 d8be a391 9ebe
00000060: 9ca9 b1be bb5a abbe cbef 6cbe 7756 30be
00000070: ffb6 35be e938 2dbe e11c 99bd 5fdf b9bd
00000080: 58dd 6bbd 19ef afbd 3deb 8f3c 78c9 d5bc
00000090: 7a62 bfbc 8181 f0ba 8c43 2cbd 97a2 d7bc
000000a0: 6c87 0cbd a320 1cbd 45b9 12bf 888e 18bf
000000b0: bf63 d6be 7f8a c3be 4dbc bebe 6bcf abbe
000000c0: aaeb 8abe 17cb 70be 8582 12be a256 3abe
000000d0: a836 d6bd 813b ccbd 2976 543c aaad c8bc
000000e0: 8f96 83bd 06bc 2cbc fa3c 0a3d 031d e6bc
000000f0: 814d e3bc 4ad9 05bd 1a01 40bd f4c2 d0be
00000100: 089b b1be 67db 0abf 1abd d9be 660c b4be
00000110: 7563 a8be a529 67be 3719 51be a2a2 1dbe
00000120: 330c ffbd 6d91 28bd b352 823c 7987 92bc
00000130: 55cd a3bb 8313 a23b 14b4 76bd ee78 8f3b
00000140: 6bfb acbd 97dc f8bc 3379 3dbd 9e23 363c
00000150: 9335 c7be 380e 88be 91b6 babe 352a b9be
00000160: 0713 99be b7a7 8cbe 9374 8fbe cfd2 11be
00000170: 8840 d2bd 4611 aa3c fdd9 e73b a8c9 ba3c
00000180: 08e9 843d be7f 10bc f74c a43a 0470 01bd
00000190: fa73 26bc e79a 903a a2b3 eebb 3012 27bd
000001a0: c1a6 103d abe5 adbe c685 81be ccab 8dbe
000001b0: e00c afbe 177c 88be f4de 46be dfba 82be
000001c0: b2b4 29be c45a 9cbd 513b 1cbe 9905 12bc
000001d0: 8069 0e3e 6582 233e 7dbd 8a3d 6e5b dcbc
000001e0: 09a2 17bd 7b4c 4ebd 3799 b1bd 9761 debc
000001f0: 21be 0dbc 2cd5 2a3c 93b8 a5be f1e5 85be
00000200: 24ed 96be fea7 9abe 2e5e 60be f438 6bbd
00000210: 11cd 74bd 263d 88bd 3da4 263d a2d8 c73d
00000220: a5bb 813e 8508 8c3e de5a 6c3e c5e6 2e3d
00000230: 42b0 a53c bfd8 fd3c aa85 cfb7 158b 84bd
00000240: 24f5 7bbc 2c99 d83d a902 983d 1ce1 98be
00000250: 7be7 87be 8ea5 14be 0759 93be 5f60 29be
00000260: 6211 dabd 8f3f c93c 0f48 c43d 219c 9e3d
00000270: 4619 803e 50fe 433e 7429 9c3e 3511 a03e
00000280: cc6f a73d b1f2 df3d ca4a ef3c c353 4e3c
00000290: 0c43 45bc 292e 84bc 87ac e93b 44fa 393e
000002a0: 30e2 5cbe 1760 59be 09f3 30be cec8 0bbe
000002b0: d8ac 9ebd 8dc6 8fbc 44b1 923d 8449 063e
000002c0: eaac 183e 0507 5d3e 5495 b33e 0de5 c33e
000002d0: 52ba a13e 36ca 443e de50 0a3e 6a3a cb3d
000002e0: 277c 413c cb12 263d cfa6 b43d f98a 3b3c
000002f0: 4342 8c3e 1a72 4cbe d651 37be 2d83 13be
00000300: 8891 32bd f424 63bd d267 893d 3181 c63d
00000310: 0ebf 183e 0217 853e fbd9 fe3e b469 ce3e
00000320: f335 013f df37 fd3e 6db8 6d3e bd01 0b3e
00000330: 03bb b23d 2bf5 cb3d 006d 083e 6420 ea3d
00000340: 6404 ac3d de68 a03e f7e0 31be 9f60 6ebe
00000350: 87bd a6bd f3e9 913c 8a71 4c3d 7d20 3c3d
00000360: 66f0 743e 324f a23e 1577 eb3e 3e0b 0b3f
00000370: db48 f33e 67b2 233f 9c82 073f 944b 8b3e
00000380: 0cc0 743e 5833 0b3e 9b8e 2c3e e6df 6d3e
00000390: 1af9 d83d f4f1 2b3e 2ee4 c43e 0ad7 bfbd
000003a0: c285 4abe 3c22 cebd 76fc 763d 9611 c93d
000003b0: 7752 043e 4193 9c3e 91b4 b13e 2e11 023f
000003c0: 00f3 243f d60c 303f 654c 473f 120b 463f
000003d0: 27f0 0e3f 9488 f03e e6f8 313e 28e2 413e
000003e0: 66f1 313e cadf d33d 7d35 843e b710 cb3e
000003f0: 7911 e8bc fd56 3ebe 45ad e4bc 0be3 bc3c

fc1.bias f4 [128]
0.7766367 0.7556266 0.19058996 0.74987024 0.78026646 0.6994621 -0.20791881 0.8019684
0.20419924 -0.06167136 -0.108363844 0.6080794 0.811118 -0.17140129 0.7849312 0.76965356
0.31228155 0.80228925 0.14810325 -0.21881187 -0.095128946 0.82663757 0.7674792 0.22532874
0.7495682 0.69974643 0.09223412 -0.05648667 0.3705828 0.09713981 -0.2536285 0.5128989
-0.22818239 0.31148338 0.57421464 0.10477209 0.2782872 0.7085357 0.11917983 0.28378052
-0.12596539 0.34504098 0.04028786 0.13113335 -0.011959632 0.045141444 0.13954249 -0.14209133
-0.20958832 0.049733512 -0.05567398 0.09791019 -0.19273907 0.7638663 0.74614424 0.751429
0.8975037 -0.62130934 0.1947771 0.776779 -0.12227891 0.8840292 -0.64928263 0.22800997
0.7798566 0.8240464 0.7607207 0.2232156 0.2691996 -0.1685569 -0.07384021 0.46650088
0.29224777 0.4006668 0.09345344 -0.54115033 0.28953755 0.32568145 -0.08321712 0.09925338
-0.11263419 0.09877652 -0.031243894 -0.1635383 0.21442527 0.8672544 0.05748761 0.45193347
-0.7186961 0.74789554 0.14616619 0.3037518 -0.5332774 0.005985694 -0.050644863 0.0041754227
0.34228694 -0.07597267 0.676579 0.11017951 -0.52633876 0.738671 -0.06831806 0.040465046
0.23174535 0.80433226 0.363897 -0.763653 -0.041171435 -0.057526454 0.08040861 -0.6692903
0.7605981 -0.16312811 0.07055685 0.85239923 0.80679536 0.7476807 0.70566255 -0.19653375
0.09355214 0.80948406 0.7887373 0.75612694 -0.10289578 0.18777665 -0.08004523 0.27130884
00000000: aad1 463f bf70 413f 042a 433e 7ff7 3f3f
00000010: 8bbf 473f f30f 333f abe8 54be cd4d 4d3f
00000020: 9b19 513e 1c9b 7cbd dded ddbd 17ab 1b3f
00000030: 6ea5 4f3f d283 2fbe 40f1 483f 0408 453f
00000040: 5ee3 9f3e d462 4d3f 61a8 173e 3810 60be
00000050: f7d2 c2bd 859e 533f 8479 443f 94bc 663e
00000060: b4e3 3f3f 9522 333f 3ee5 bc3d 915e 67bd
00000070: 07bd bd3e 3df1 c63d 98db 81be 584d 033f
00000080: a5a8 69be c07a 9f3e bbff 123f c092 d63d
00000090: a97b 8e3e 9862 353f 8e14 f43d ae4b 913e
000000a0: 12fd 00be 36a9 b03e e204 253d d247 063e
000000b0: 55f2 43bc 3ce6 383d 3ae4 0e3e 6480 11be
000000c0: 529e 56be 5eb5 4b3d 660a 64bd 2385 c83d
000000d0: 645d 45be be8c 433f 4f03 3f3f a75d 403f
000000e0: cdc2 653f 210e 1fbf a673 473e fdda 463f
000000f0: 5d6d fabd bd4f 623f 6337 26bf 727b 693e
00000100: afa4 473f b4f4 523f 97be 423f a192 643e
00000110: 88d4 893e 2e9a 2cbe 8939 97bd 34d9 ee3e
00000120: 80a1 953e 3324 cd3e 8464 bf3d d488 0abf
00000130: 443e 943e b8bf a63e bd6d aabd 5b45 cb3d
00000140: c1ac e6bd 584b ca3d 32f3 ffbc 9676 27be
00000150: 4c92 5b3e 6204 5e3f 2178 6b3d d363 e73e
00000160: 78fc 37bf 1576 3f3f 97ac 153e 5b85 9b3e
00000170: de84 08bf a423 c43b fd70 4fbd fcd1 883b
00000180: 3c40 af3e 8f97 9bbd 4834 2d3f cca5 e13d
00000190: 23be 06bf 8b19 3d3f 57ea 8bbd adbe 253d
000001a0: a74e 6d3e b8e8 4d3f b550 ba3e c37e 43bf
000001b0: 61a3 28bd dca0 6bbd 45ad a43d 9c56 2bbf
000001c0: 8fb6 423f 0e0b 27be 1c80 903d d636 5a3f
000001d0: 248a 4e3f 0168 3f3f 4da6 343f 2540 49be
000001e0: 4498 bf3d 593a 4f3f b0ea 493f 8991 413f
000001f0: 06bb d2bd 8648 403e c1ee a3bd fee8 8a3e

fc2.weight f4 [2, 128]
0.52002317 0.47237334 0.09169506 0.17785035 0.23744506 0.14103384 -0.15873331 0.35193363
-0.0795388 -0.01596233 0.4959231 -0.5749393 0.29969525 -0.16726595 0.4528867 0.3043213
0.22430936 0.3279194 -0.26904562 -0.008653429 -0.017534625 0.33553192 0.43070742 -0.34151524
0.25343096 0.10624262 -0.08438166 0.0038612625 0.38286954 0.33089983 -0.05899952 0.33592078
-0.1408893 0.19863993 0.55229694 -0.25586286 -0.47794014 0.10294204 -0.28239658 0.16278046
-0.13988744 0.35120186 -0.5568057 0.006029973 -0.34337533 -0.13427679 -0.17293704 0.00709113
-0.199044 -0.20335639 0.0351357 -0.09880778 -0.22281283 0.48034728 0.3337297 0.23273937
0.05783938 7.979444e-05 -0.18404898 0.24556427 -0.22428487 0.32818604 0.0019695724 -0.34695202
0.25186813 0.44442114 0.5556315 -0.36952215 -0.05747693 -0.112225465 0.011186874 0.5856696
-0.14403494 0.11181177 0.36339343 0.0018104231 0.12224924 0.21732697 0.012887342 -0.16735584
-0.07844628 -0.14710775 0.0131752305 -0.042637594 0.14432454 0.24291432 -0.22902504 0.29246482
0.003673185 0.1314711 -0.51974565 0.18302938 0.026333973 0.3881479 -0.032106794 -0.30242103
0.21053466 -0.28205928 0.032542326 0.25567588 0.00054197497 0.2533584 -0.04568068 0.04454432
-0.19845936 0.027140971 0.119376294 -0.0016993411 -0.046647 -0.03786262 -0.42315602 0.00015814076
0.4600756 -0.020022085 -0.12984419 0.30578282 0.54787624 0.2674414 0.22148338 -0.21684271
-0.41476682 0.22848098 0.3300085 0.21181944 -0.13471709 -0.10068462 -0.242475 0.13532764
0.22215334 0.21905948 0.28080818 0.32096678 0.37220582 0.30908465 0.04689852 0.37981325
-0.014103287 0.03676404 -0.9730677 -0.01106434 0.4541628 0.054579 0.29778716 0.3160419
0.023678336 0.3314 -0.1609074 0.12959959 0.16410096 0.36228436 0.2597386 -0.110267214
0.2717352 0.3419337 0.18893598 0.07364204 0.0034530326 0.05128779 0.34885982 -0.0018787583
0.052416414 0.0617722 -0.002991497 -0.025069393 -0.053905763 0.49332324 -0.0024694104 0.0041697836
0.08937223 0.043263227 -0.018485216 -0.2853015 0.15440375 0.14454737 -0.012345545 0.0116629135
0.26432273 0.037881985 -0.08218849 -0.06525883 0.21269765 0.2786435 0.2692362 0.3068897
0.21108016 -0.06459384 -0.04867011 0.33559355 0.03266391 0.36026818 0.0008075434 -0.021038417
0.34444034 0.3164808 0.23612912 -0.037047658 0.016445076 0.06740742 0.006005928 0.0032855237
-0.06979544 -0.0004893673 0.16374563 -0.2778763 0.1154466 0.026350504 0.005124003 -0.007371272
-0.13985313 -0.006386344 0.0006694241 0.12435351 0.023919953 0.4033582 0.019320298 0.0008331189
-0.29655752 0.42765686 0.028699966 0.00467091 0.023262413 -1.3313518 -0.009579831 0.013290566
-0.39828768 0.19747686 0.122982986 0.1058974 -0.004573561 0.30225152 0.08773706 -0.4414006
-0.07260544 0.31993887 -1.114879 -0.004677296 0.0032929592 0.03404274 0.039049838 -0.00063510466
0.24709688 0.1497776 0.08973377 0.44529608 0.25937206 0.30303133 0.26412877 0.033280443
-0.002369128 0.40896156 0.32211077 0.40209416 0.31974578 0.008537525 0.053046886 0.018451085
00000000: 3d20 053f ebda f13e 9fca bb3d 671e 363e
00000010: cc24 733e 2d6b 103e fc8a 22be a530 b43e
00000020: 3de5 a2bd 6fc3 82bc a2e9 fd3e 392f 13bf
00000030: a871 993e c447 2bbe c4e0 e73e 00d0 9b3e
00000040: 5ab1 653e 0de5 a73e 59c0 89be 1dc7 0dbc
00000050: c6a4 8fbc d7ca ab3e af85 dc3e 16db aebe
00000060: b4c1 813e bb95 d93d 4bd0 acbd 3c0d 7d3b
00000070: 7a07 c43e b46b a93e 7ba9 71bd cffd ab3e
00000080: 4945 10be 4468 4b3e 5563 0d3f 7500 83be
00000090: 92b4 f4be 47d3 d23d 4996 90be ecaf 263e
000000a0: a73e 0fbe bbd0 b33e d18a 0ebf 1497 c53b
000000b0: e4ce afbe db7f 09be 6816 31be b65c e83b
000000c0: 31d2 4bbe a83c 50be 74ea 0f3d bc5b cabd
000000d0: 0c29 64be 14f0 f53e 9fde aa3e 3b53 6e3e
000000e0: fce8 6c3d 5057 a738 5677 3cbe 3375 7b3e
000000f0: efaa 65be 0008 a83e f113 013b b2a3 b1be
00000100: dcf4 803e 2b8b e33e de3d 0e3f 0232 bdbe
00000110: ee6c 6bbd 77d6 e5bd 2649 373c 71ee 153f
00000120: e57d 13be 92fd e43d b40e ba3e b84b ed3a
00000130: cf5d fa3d f68a 5e3e 6e25 533c 545f 2bbe
00000140: 71a8 a0bd 6aa3 16be ecdc 573c c2a4 2ebd
00000150: d0c9 133e 88be 783e 8a85 6abe f3bd 953e
00000160: d1b9 703b 5ca0 063e 0d0e 05bf 0e6c 3b3e
00000170: 58ba d73c 52bb c63e 6a82 03bd eed6 9abe
00000180: 6696 573e 136a 90be 1a4b 053d f3e7 823e
00000190: 5313 0e3a 31b8 813e aa1b 3bbd 1b74 363d
000001a0: ee38 4bbe be56 de3c 8f7b f43d 6dbc deba
000001b0: ed10 3fbd d615 1bbd e8a7 d8be 96d2 2539
000001c0: 078f eb3e 5b05 a4bc e0f5 04be 918f 9c3e
000001d0: 9e41 0c3f 14ee 883e 8acc 623e 040c 5ebe
000001e0: 515c d4be ebf6 693e e0f6 a83e 32e7 583e
000001f0: 47f3 09be bd33 cebd 5e4b 78be 5493 0a3e
00000200: 2a7c 633e 2151 603e 17c6 8f3e c255 a43e
00000210: c391 be3e 5840 9e3e aa18 403d e276 c23e
00000220: 7911 67bc e495 163d f71a 79bf 3547 35bc
00000230: 0788 e83e 3b8e 5f3d 8f77 983e 3ed0 a13e
00000240: 12f9 c13c 43ad a93e e9c4 24be c1b5 043e
00000250: 150a 283e 567d b93e 75fc 843e c7d3 e1bd
00000260: e020 8b3e ef11 af3e 6f78 413e a3d1 963d
00000270: 464c 623b 2513 523d c19d b23e ab40 f6ba
00000280: 98b2 563d d904 7d3d fe0c 44bb 545e cdbc
00000290: 4acc 5cbd dd94 fc3e d5d5 21bb aea2 883b
000002a0: ca08 b73d c834 313d 4f6e 97bc 0a13 92be
000002b0: 041c 1e3e 3a04 143e f844 4abc ce15 3f3c
000002c0: 4f55 873e 242a 1b3d 7052 a8bd 6ca6 85bd
000002d0: 6acd 593e 5caa 8e3e 54d9 893e a620 9d3e
000002e0: 6625 583e c649 84bd 4f5a 47bd ebd2 ab3e
000002f0: 98ca 053d 1275 b83e 52b1 533a c258 acbc
00000300: 7c5a b03e c509 a23e d5cb 713e 49bf 17bd
00000310: d3b7 863c e70c 8a3d 60cd c43b f151 573b
00000320: e9f0 8ebd e248 00ba efac 273e cd45 8ebe
00000330: 446f ec3d 03dd d73c 41e7 a73b b68a f1bb
00000340: a935 0fbe 8944 d1bb 4a7c 2f3a 0ead fe3d
00000350: c7f3 c33c f784 ce3e 9a45 9e3c aa65 5a3a
00000360: 63d6 97be d7f5 da3e 311c eb3c 6f0e 993b
00000370: d190 be3c bc69 aabf b9f4 1cbc adc0 593c
00000380: 5dec cbbe 6037 4a3e 81de fb3d bce0 d83d
00000390: cfdd 95bb b6c0 9a3e 7daf b33d 42ff e1be
000003a0: 29b2 94bd 07cf a33e 5bb4 8ebf 0144 99bb
000003b0: b0ce 573b 6670 0b3d b9f2 1f3d 277d 26ba
000003c0: f706 7d3e 4d5f 193e 57c6 b73d d9fd e33e
000003d0: 6acc 843e ec26 9b3e e33b 873e 1351 083d
000003e0: 5f43 1bbb 6963 d13e b4eb a43e 49df cd3e
000003f0: b8b5 a33e fae0 0b3c b147 593d bb26 973c

fc2.bias f4 [2]
0.34324634 0.7788702
00000000: fcbd af3e 0a64 473f
