backend/models/model1.pth (torch, 196936 bytes, 4 tensors)

fc1.weight f4 [128, 378]
000000 c2 5b 69 3e 61 f1 4b 3e 2a 3b 6a 3e 99 fe 90 3e
       0.22788909 0.19916297 0.22874132 0.28319243
000010 9f 1b 86 3e 95 c5 60 3e b6 57 80 3e b7 d8 60 3e
       0.26192948 0.21950372 0.25066918 0.2195767
000020 e0 9e 26 3e 80 cc 1f 3e 24 87 19 3e 98 0d 4c bd
       0.16271544 0.15605354 0.14992958 -0.04981765
000030 f7 dd ce 3c 83 3c 79 3c b9 58 18 3d 9d 40 1b 3d
       0.025252325 0.015212181 0.037193988 0.037903417
000040 a6 3f c2 3b 8d dc e1 38 80 2b 0f 3d 42 bf 17 3c
       0.0059279976 0.00010769917 0.034953594 0.009261908
000050 25 9a b4 3c 9c b2 a1 3e 99 d3 89 bd 90 ad 16 3e
       0.022046158 0.3158158 -0.06729812 0.14714646
000060 90 5b 7c 3e 81 a2 93 3e 32 90 76 3e 67 52 42 3e
       0.24644303 0.28834918 0.24078444 0.18976746
000070 77 b9 0f 3e 61 07 e6 3d 71 71 87 3d 7b 9b b3 3d
       0.14035593 0.11231876 0.06613434 0.0876989
000080 3f ae 6d 3c a4 17 18 3d 55 68 84 ba 55 76 5e 3c
       0.014506876 0.03713192 -0.0010101894 0.013578017
000090 20 73 43 bc c5 41 4b bd ca b6 05 bd 97 88 9a 3c
       -0.011929303 -0.04962327 -0.032645024 0.01886396
0000a0 cb f9 0a 3d 5b 44 1e ba 35 34 90 3e b3 76 87 3e
       0.033929627 -0.00060374074 0.2816483 0.26457748
0000b0 32 25 e1 3d ff 49 43 3e 0c 07 77 3e e1 6b 29 3e
       0.109934226 0.19071196 0.24123782 0.16545059
0000c0 b9 da 64 3e 70 c2 a9 3d 69 98 f8 3d c2 fd 63 3d
       0.22349061 0.08289039 0.12138445 0.055661924
0000d0 41 a6 82 3d c6 f6 99 3d e8 2d 9a 3d 58 bc ac 3d
       0.06379367 0.075177714 0.07528287 0.08434361
0000e0 75 2e a4 3d e9 a0 ce 3c 85 dd 5d bb 5f bb 1c bd
       0.080166735 0.025223212 -0.003385396 -0.03826463
0000f0 62 0e 46 bd 69 39 a9 3c ec e9 21 3d 60 a4 ab 3e
       -0.04835356 0.020657258 0.039529726 0.33523846
000100 9e 85 9d 3e bb 5a 61 3e b1 d8 b6 3e 0d 3b 58 3e
       0.30766004 0.22007267 0.35712197 0.21116276
000110 e6 53 41 3e 3e bf 02 3e 3d 52 c6 3d eb 75 ee 3d
       0.18879661 0.12768266 0.096836545 0.11643585
000120 e5 a4 63 3d e0 aa a9 3d 1f 1c 00 3d 72 61 b4 3d
       0.055577178 0.08284545 0.03127682 0.08807649
000130 8c 7e 83 3d e8 b4 b7 3c af 6f f0 3d 94 13 56 3d
       0.06420621 0.02242513 0.11740052 0.052264765
000140 57 73 3b bd d9 d5 38 bd 03 c6 92 bc 5c 06 33 3c
       -0.045764294 -0.045125816 -0.017916685 0.010926809
000150 fb bc ad 3e b6 3b a4 3e 23 da 83 3e ff 0a 8c 3e
       0.33933243 0.32076806 0.25752363 0.2735214
000160 93 72 17 3e fd 23 38 3e db bc 06 3e c6 97 cc 3d
       0.147898 0.17982478 0.1315798 0.09989886
000170 c0 52 e9 3c 30 9c a7 3d d4 2b 4c bd 52 c0 84 bc
       0.028481841 0.08184087 -0.049846485 -0.016204987
000180 11 9d 05 bc 4e 67 19 3b 1b b3 5d bb 62 84 31 3d
       -0.008155123 0.0023407522 -0.003382868 0.04333914
000190 d8 2f 7c 3b 2b 8c b1 3c 2c 30 48 3d 55 5e 0d 3c
       0.0038480666 0.021673283 0.048874065 0.008628448
0001a0 ea 80 fd 3c d2 48 8f 3e 76 3f 89 3e 4e 76 86 3e
       0.03094526 0.27985245 0.2680623 0.26262134
0001b0 70 ee 91 3e 26 3c 4e 3e 70 7b d7 3d c8 52 ba 3c
       0.28502226 0.20140132 0.10521591 0.022744551
0001c0 ac 90 c9 3c 51 a4 b5 3a 1b e2 d9 bd af 5c 1f 3d
       0.024605118 0.0013858174 -0.10638829 0.03890675
0001d0 4b b5 ac bc eb 9e 66 bd e6 24 27 bd fb b8 91 bd
       -0.021082541 -0.0563039 -0.040806673 -0.0711536
0001e0 ae 38 d2 bc c1 ee da 3d 95 ed d9 3b 2f da 18 3e
       -0.025661793 0.1069007 0.0066506364 0.1492698
0001f0 c6 ab d0 3d f0 a3 9a 3c 3b 2b 34 3e 2b ee 88 3e
       0.10189013 0.018877 0.17594616 0.26744208
000200 66 6b 3c 3e 0a 17 36 3e 0f 61 4c 3e 56 6d e3 3d
       0.18400344 0.17782226 0.199589 0.111048386
000210 db e8 0a 3d 19 14 e5 3c e0 ad 12 bd f1 81 80 bd
       0.033913475 0.027963685 -0.03581035 -0.06274784
000220 07 82 b7 bd 59 a3 a1 be ce 83 57 bd bd 7e 0e be
       -0.089603476 -0.31569937 -0.052615933 -0.13915534
000230 92 a2 8e bd 1d f4 b2 bd 21 34 b1 3d 5f d4 9a 3d
       -0.069646016 -0.08737967 0.08652521 0.07560038
000240 a2 3a 2e 3e 4d 74 48 3e 73 55 2a 3e 33 86 01 3e
       0.17014554 0.19575615 0.16634159 0.12648849
000250 88 e5 80 3e 19 67 84 3e 8a 5d 1e 3e 86 01 1f 3e
       0.25175118 0.25859907 0.1546537 0.15527925
000260 6b 89 f3 3c 1c ae 5f 3d bf f2 2e bd 2e 1a 9b bd
       0.029728612 0.054609403 -0.04271197 -0.07573353
000270 71 b3 16 be 93 15 a6 bd b0 60 49 bd 5c ac cd bd
       -0.14716889 -0.08109584 -0.049164474 -0.100426406
000280 65 29 27 be 76 08 cb bd 67 ba a8 bd 18 38 0d 3d
       -0.16324385 -0.09913723 -0.082386784 0.034477323
000290 e6 ee 17 bd f7 9c b0 bc c0 33 2a 3e 4e 5c 69 3e
       -0.037093066 -0.021559222 0.16621304 0.22789118
0002a0 3c 35 f3 3d 47 21 4c 3e 92 81 30 3e f2 14 73 3d
       0.11875388 0.1993457 0.17236927 0.059346147
0002b0 e4 e7 c3 3d 37 a5 22 3d f6 b5 23 bd 4a 3c 7b bd
       0.09565714 0.039708342 -0.039968453 -0.061336793
0002c0 99 64 b8 bd 4f 67 ae bd fa b5 3b be 7e 79 b1 be
       -0.090035625 -0.08515798 -0.18331137 -0.34663004
0002d0 c5 17 ec bd 42 4c 19 be 4b a6 54 bd d9 3f f6 bd
       -0.11527971 -0.14970496 -0.0519164 -0.12023897
0002e0 e4 2b c4 3d fc 5d a0 3d a2 63 c4 bc 47 72 ed 3d
       0.09578684 0.07830426 -0.02397329 0.11594062
0002f0 7e 4c 83 3e c6 06 e9 3d b2 d7 4a 3e 19 06 25 3e
       0.25644296 0.11378245 0.19808844 0.16115607
000300 71 58 07 3e 03 6b a7 bb 2d 27 d6 bc 26 f7 b0 bd
       0.13217331 -0.0051091923 -0.026141727 -0.0864089
000310 24 76 de bd 2d 8c f2 bd b4 d4 45 be fa 50 2c be
       -0.10862377 -0.11843143 -0.19319421 -0.16827765
000320 14 7c 55 be de e7 53 be 76 ba 8b be e5 31 82 be
       -0.20848113 -0.20693919 -0.27290696 -0.25428692
000330 be 5d c9 bd 79 d0 0f bd b3 e1 83 3c f8 d9 86 3d
       -0.09832333 -0.035110924 0.016098833 0.06584543
000340 f7 d2 72 3e a5 d6 8d 3e 9d bc 15 3e ec 76 1f 3e
       0.23713289 0.27702823 0.14622732 0.15572709
000350 51 50 eb 3d 5e 91 e9 3d 6b 27 2c bd 4b 74 ae bb
       0.114899285 0.1140468 -0.04202978 -0.005323922
000360 19 d2 f1 bd e9 f7 ac be ea 27 ad be d0 7c 3c be
       -0.11807651 -0.3378289 -0.33819515 -0.18406987
000370 d6 a0 4d be 9e f3 ac be 1b 61 ab be c3 98 a1 be
       -0.20080885 -0.33779615 -0.33472523 -0.3156186
000380 d5 52 58 be d9 d0 43 be e0 ab 5f be aa 39 5e be
       -0.21125348 -0.19122638 -0.21842909 -0.21701685
000390 f3 cc ef 3d b6 79 39 3e 69 5d 75 3e 24 66 d3 3d
       0.11709013 0.18112835 0.23961414 0.10322216
0003a0 3f 9b 1d 3e eb d6 a9 3d df 6e d7 3d 02 e5 ab 3d
       0.15391253 0.082929455 0.10519194 0.08393289
0003b0 07 f7 df bd 20 da 9b bd 4a 73 db bd b8 23 84 be
       -0.109357886 -0.076099634 -0.10715349 -0.258085
0003c0 1c 57 b8 be 39 9f ae be 76 7e 80 be ed c0 b7 be
       -0.3600396 -0.34105852 -0.25096482 -0.35889378
0003d0 8c ff b9 be 99 4d 83 be 27 6d 8c be ef cb 3b be
       -0.3632778 -0.2564514 -0.27427027 -0.18339513
0003e0 27 91 90 be d1 8f 03 be 99 91 97 3c 3a e6 55 3e
       -0.28235742 -0.1284783 0.018502044 0.20888606
0003f0 12 60 01 3e ac 8d 0b 3e b9 ec e1 3d ba 3a df 3d
       0.12634304 0.13628262 0.110314794 0.10899873

fc1.bias f4 [128]
000000 c5 bc a4 3e 33 92 92 3e c5 93 8f 3e b8 c5 90 3e
       0.3217527 0.28627166 0.28042427 0.28275847
000010 3e 39 50 3e a6 d3 94 3e 39 63 99 3e 81 81 9d 3f
       0.20334336 0.29067725 0.29958513 1.2305146
000020 b8 9b 3c 3f 25 0e 87 3e 42 af 73 3f d3 eb 97 3e
       0.7367511 0.2637798 0.951893 0.29672107
000030 28 66 a3 3e 93 a0 9f 3e b8 7b 63 3f bd d6 9f 3e
       0.31913877 0.31177196 0.88860655 0.3121852
000040 29 d3 17 3f bf ac d2 3e ba 90 95 3e de 00 4f 3f
       0.5930658 0.4114742 0.2921198 0.808607
000050 8f 37 8d 3e ab a0 56 bd cf 46 a1 3e 6b 6c 93 3e
       0.2758145 -0.05239932 0.31499335 0.28793654
000060 59 f5 85 3f 54 a3 98 3e 61 43 9c 3e 19 db 92 3e
       1.0465499 0.2981211 0.30520156 0.28682783
000070 4e cf 92 3e 3f 90 a3 3e 0c df 95 3e 3e fb 97 3e
       0.28673786 0.3194599 0.29271734 0.2968387
000080 60 8d 88 3f 04 5d 9f 3f b2 36 5c 3f 83 3b 97 3e
       1.0668144 1.2450261 0.8602096 0.2953759
000090 db 19 91 3e ab 10 98 3e bc 05 9e 3e 3c d1 96 3e
       0.2834004 0.29700217 0.3086375 0.29456508
0000a0 4e 02 7c 3e 54 75 99 3e 51 b5 78 3f 36 cf 98 3e
       0.24610254 0.29972327 0.97151667 0.2984559
0000b0 36 fc 88 3e bb 41 9d 3f 70 50 99 3e a4 13 fd 3e
       0.26754922 1.2285684 0.2994418 0.49429047
0000c0 f7 52 99 3e a2 b5 98 3e f6 2f a1 3f 94 3d 99 3e
       0.2994611 0.29826075 1.2592762 0.29929793
0000d0 51 5b 97 3e 5d f6 90 3e 25 6a b1 3e 3c a4 9f 3e
       0.29561856 0.2831296 0.34651294 0.31179988
0000e0 61 a0 92 3e 0e 17 a7 3e ba 2d 78 3e 5c 0f 73 3f
       0.28637984 0.32634777 0.24236193 0.9494531
0000f0 a5 47 5f bd af c8 be 3e 3a 3d 97 3e ae c0 93 3e
       -0.054511685 0.37262484 0.295389 0.2885794
000100 d0 dd a0 3f ec 56 88 3e 7b be 89 3e 7e 7c 65 3f
       1.2567692 0.26628816 0.26903138 0.89643085
000110 fe 0b 9f 3f 3f 5b 7e 3f 41 a0 91 3e ec 82 92 3e
       1.2425535 0.9935798 0.28442577 0.2861551
000120 9c ef 7a 3f fd 39 7e 3e 4d f8 9e 3f 1f d5 fb 3e
       0.98021865 0.24826808 1.2419525 0.49186036
000130 fa 3d 5b bd 04 ad cb 3e 3a 78 9e 3e bc f2 e2 3e
       -0.053525902 0.39780438 0.309511 0.44325817
000140 f9 2d 96 3e d4 ad a0 3e 52 21 0a 3f ce 16 93 3e
       0.2933195 0.3138262 0.5395709 0.28728336
000150 d0 ab 9f 3e 99 cc 96 3e 8a 07 9e 3f 72 c7 9f 3e
       0.3118577 0.2945297 1.2346051 0.31206852
000160 73 05 8b 3e cd 0e 9a 3f 9b c1 92 3e f3 47 9a 3e
       0.27152595 1.2035767 0.28663334 0.30133018
000170 29 8a 88 3e 2e 27 55 3f 85 89 9f 3f 74 10 82 3f
       0.26667908 0.8326291 1.2463843 1.0161271
000180 e9 04 9b 3e f1 32 8a 3e a5 a5 88 3f e3 c1 91 3e
       0.30277184 0.2699199 1.0675551 0.28468236
000190 30 b7 9d 3f c8 93 7a 3f 77 36 ba 3e d3 e7 85 3f
       1.2321529 0.97881746 0.36369678 1.0461372
0001a0 63 cb 97 3e ff 68 c6 3e 27 a0 a5 3e c7 6c 69 3f
       0.2964736 0.3875198 0.3234875 0.91181606
0001b0 4c 65 8e 3f 85 0d 98 3e 9d e4 a0 3e 25 10 91 3e
       1.1124663 0.29697815 0.31424418 0.2833263
0001c0 b3 d8 85 3e 23 7e aa 3e 25 5c a1 3f 50 c3 88 3e
       0.2614189 0.3329936 1.2606245 0.26711512
0001d0 c6 65 7a 3f ef 6f 97 3e 3a 07 9d 3f ba 01 57 bd
       0.97811544 0.29577586 1.226783 -0.05249188
0001e0 13 9b 9a 3f d2 8a 95 3e d7 7a 84 3f a4 c3 83 3f
       1.2078575 0.29207474 1.0349988 1.029408
0001f0 1c c3 95 3e 6f 54 6e 3f 3a 35 9f 3e 5b 18 86 3e
       0.2925042 0.93097585 0.31095296 0.26190457

fc2.weight f4 [2, 128]
000000 51 ae 28 bf a8 5f bd be d4 3b 6f be d6 f3 f9 be
       -0.65890986 -0.36987042 -0.23362666 -0.48818845
000010 bf 42 43 be ee 85 05 bf 8f 4e 03 bf 2d 0a c8 3f
       -0.1906843 -0.52157485 -0.51291746 1.5628105
000020 d4 3a c7 3f 3a e6 85 be 30 42 bc 3e e6 f2 b9 be
       1.5564828 -0.2615221 0.36769247 -0.3631813
000030 ea f5 23 bf 1c 5c c9 be 8e bc 11 bf 9d 81 d2 be
       -0.6404711 -0.39328086 -0.56928337 -0.41114512
000040 db 52 4b bf d2 29 30 bf 4a e6 a1 be 11 3c c6 3f
       -0.794233 -0.6881381 -0.3162101 1.5487081
000050 a2 c2 63 be 61 dc 9c 3c b9 1e ec be f8 30 20 bf
       -0.22242215 0.019148054 -0.4611719 -0.6257472
000060 7f 4d 59 3f 1e d4 02 bf 46 9a a2 be c6 6e c4 be
       0.84883875 -0.51104915 -0.31758326 -0.38365763
000070 36 ff 76 be 7b de cf be 83 85 e9 be 91 d8 1a be
       -0.24120793 -0.40599427 -0.45609674 -0.15121676
000080 e3 ef 5f 3f af e0 be 3f 3f 1e 2e bf 42 d8 75 bf
       0.87475413 1.4912318 -0.680149 -0.9603311
000090 9e 07 02 bf b1 41 d3 be df a9 2a bf 23 c1 9e be
       -0.5079287 -0.41261056 -0.6666545 -0.31006727
0000a0 c1 33 e2 be 59 10 62 be 5c 4e fa 3e 98 1a 68 be
       -0.4418011 -0.22076549 0.48887908 -0.22666395
0000b0 4a a9 a8 be 65 83 ba 3f 73 42 ca be fb 50 a1 3f
       -0.32941657 1.4571348 -0.39503822 1.2602838
0000c0 60 42 b9 be 93 ef ea be 06 9b ca 3f 2e 50 08 bf
       -0.36183453 -0.45885906 1.5828559 -0.53247344
0000d0 68 c3 0c bf 52 0e f9 be 6f f1 fd be 98 c4 49 be
       -0.54985666 -0.48643738 -0.49598262 -0.19703901
0000e0 3e 02 80 be 6a a6 35 bf 9d 50 c4 bd 31 e5 b1 3e
       -0.2500171 -0.7095705 -0.09585688 0.34745172
0000f0 3a da 95 3c 5a 4e 19 3f ea 40 c1 be fe a9 c7 be
       0.018292535 0.5988518 -0.37744838 -0.3899688
000100 52 f5 c0 3f c8 f6 a0 be 6e 4e 85 be 5d 03 ba 3f
       1.5074866 -0.3143828 -0.260364 1.4532276
000110 4a d1 c5 3f a9 61 a0 bd e7 42 b4 bd 68 93 13 bf
       1.5454495 -0.07831127 -0.08801823 -0.576468
000120 7c f0 e6 3e c9 a4 db be f9 b1 b9 3f 8f 16 ab 3f
       0.4510535 -0.4289916 1.4507438 1.3366259
000130 83 47 1d 3d 36 77 9e 3f 7f e5 99 be 86 94 95 3f
       0.038398277 1.238013 -0.30057904 1.1685951
000140 6a d8 08 bf 54 9e ad be 0b 4d a1 3f a4 fa 21 bf
       -0.5345522 -0.33909857 1.2601637 -0.6327307
000150 bd 5f 27 bf 63 46 ad be b6 47 d0 3f 58 42 95 be
       -0.6538046 -0.33842763 1.6271884 -0.2915218
000160 e9 61 83 be bc 90 cc 3f cc a9 9b be 40 22 2d bf
       -0.25660637 1.598167 -0.30402982 -0.67630386
000170 45 53 4c be 98 ed b9 3f a2 10 cc 3f c5 fa 34 3f
       -0.1995364 1.4525633 1.5942576 0.70695144
000180 b1 f9 b6 be 62 ef 98 be 65 34 4c 3f 41 22 fb be
       -0.35737374 -0.29870135 0.7976745 -0.4904957
000190 eb 16 c8 3f 16 80 de 3e 08 cc 89 3f 9f 67 4c 3f
       1.5631994 0.43457097 1.076539 0.79845613
0001a0 6e f6 1b be 60 85 8c 3f 99 22 ac be 6a b9 60 3e
       -0.15230724 1.0978203 -0.33620146 0.2194573
0001b0 4f 40 7c 3f 33 d6 f1 be 76 bd 0e bf 7e 51 8c be
       0.9853563 -0.47233734 -0.55757844 -0.27405924
0001c0 c8 f0 88 be 59 c6 9b be 05 2a bb 3f 08 4f 69 be
       -0.26746202 -0.30424765 1.4622198 -0.22784054
0001d0 3f d5 f3 be ee a5 29 bf 87 86 c2 3f 44 13 1e 3d
       -0.4762363 -0.66268814 1.5197304 0.038592592
0001e0 fa 86 c4 3f f6 42 d5 be 10 99 1a 3f ce 09 0e 3f
       1.5353692 -0.4165265 0.60389805 0.5548371
0001f0 b7 6a 1b bf 3f b2 07 bf d9 7e 9b be d0 21 68 be
       -0.6070971 -0.53006357 -0.30370215 -0.22669148
000200 a7 14 9c be 20 ba b7 be f5 89 b1 be 8a 0d 8f be
       -0.30484506 -0.3588419 -0.34675565 -0.27940017
000210 33 80 ae be b5 02 32 be e9 8d 86 be 8c 62 8a 3f
       -0.34082183 -0.17383845 -0.26280144 1.0811324
000220 4c ee 8b bf 75 8f 1a bf 7d 7a c8 3f 12 73 93 be
       -1.0932097 -0.6037515 1.566238 -0.2879873
000230 20 09 8f bc 17 24 da be 1f b2 8f 3f 20 a8 f8 be
       -0.017460406 -0.4260566 1.1226233 -0.4856577
000240 b3 16 30 3f 29 df 64 3e b8 21 a1 be bc bb 74 bf
       0.68784636 0.22350754 -0.31471038 -0.9559896
000250 d9 51 8b be 67 ff de 3c 8e 29 96 be f4 27 66 be
       -0.27210882 0.027221395 -0.2932858 -0.22476178
000260 5e ab e5 3f a1 f5 29 be d5 d8 d9 be bd b4 08 bf
       1.7942922 -0.16597606 -0.42548242 -0.53400785
000270 85 b1 b7 be 4b 32 44 be 10 87 8f be 57 dc 84 bf
       -0.35877624 -0.1915981 -0.28032732 -1.0379742
000280 63 98 d0 3f d7 52 65 3f 88 d5 8d 3f 01 9c c6 be
       1.6296505 0.8957953 1.108079 -0.38790897
000290 dc da 86 be d5 d8 81 be e2 5e 1c be d7 99 b7 be
       -0.2633885 -0.25360742 -0.1527057 -0.35859558
0002a0 24 fe fc be 8e 2b f2 be 57 ca cc 3f 98 48 22 bf
       -0.49412644 -0.47298855 1.5999249 -0.6339202
0002b0 14 c0 48 be 0f bf 8e 3f 41 51 b7 be 82 a1 91 bf
       -0.19604522 1.1152056 -0.3580418 -1.1377413
0002c0 35 4f 31 be 96 ee c0 be a7 b1 6d 3f d0 1a d3 bd
       -0.17315371 -0.37682027 0.928492 -0.103078485
0002d0 4e 23 94 be da 19 a7 bd d0 88 aa 3d f3 e0 4c bf
       -0.28933185 -0.08159228 0.08326876 -0.80030745
0002e0 57 cf e1 be 2c 97 2b be 43 a7 c4 be 85 f6 d0 3f
       -0.441035 -0.16756886 -0.3840886 1.6325232
0002f0 7b 1b 00 ba f5 3a 9a bf fa d3 5f be b8 f3 a0 be
       -0.00048869074 -1.2049242 -0.21858206 -0.31435943
000300 9e 33 25 3f 69 f2 c0 be b2 49 03 bf 1e ba 46 bf
       0.64531887 -0.37684944 -0.51284325 -0.7762774
000310 97 fb 59 3f 39 c1 cf 3f af 65 06 bf f2 af 17 be
       0.8514952 1.6230842 -0.52498907 -0.14813212
000320 5a d6 cc 3f d1 96 70 be ac 15 7e 3f 76 3c 9b bf
       1.6002915 -0.23495032 0.9925182 -1.2127826
000330 a1 23 8f bb 61 53 a8 bf 9c a1 9b be ca 80 8b bf
       -0.004368261 -1.3150445 -0.30396736 -1.0898678
000340 88 3b 80 be 92 9b c3 be f3 92 8a bf 1b db b4 be
       -0.2504542 -0.38204628 -1.0826095 -0.35323414
000350 cc 0e 3f be 1e 4a a1 be c7 d4 e0 3e 22 de c5 be
       -0.18657988 -0.3150186 0.43912336 -0.38646036
000360 49 c8 c8 be e9 29 67 3f 7c d7 bf be fb cf b4 be
       -0.39215305 0.90298325 -0.3746909 -0.35314927
000370 9c 63 87 be 66 cb 66 bf f0 85 81 3f 9b 4f e2 3f
       -0.26443183 -0.9015411 1.0119 1.7680544
000380 c1 3e da be bc 5d 8f be a6 1f ca 3f 1f 9f b3 be
       -0.42626002 -0.280012 1.5790908 -0.35082337
000390 39 74 77 3f 09 e1 cb 3f 83 58 90 bf 2d 04 d2 3f
       0.96661717 1.592805 -1.1277012 1.6407524
0003a0 c6 89 2f bf b5 ab 88 bf a9 98 9a be 77 41 c2 3f
       -0.685696 -1.0677401 -0.30194595 1.5176228
0003b0 cf a5 ce 3f a5 94 6c be c9 c3 89 be a2 34 bd be
       1.6144351 -0.23103578 -0.26907185 -0.36954218
0003c0 71 37 02 bf 59 88 9e be e6 c9 5e 3f ac d8 e4 be
       -0.50865847 -0.309634 0.8702682 -0.44696558
0003d0 3d e6 9f 3f 42 3a 8e be ec 7a 65 3f 13 98 8a 3d
       1.2492138 -0.27778822 0.8964069 0.06767287
0003e0 a7 cb 6b 3f d9 34 94 be 10 51 cc 3f a3 7d cd 3f
       0.92107624 -0.2894657 1.5962238 1.6053966
0003f0 64 33 0d bc f2 cb a1 3f 34 e2 e4 be 2a 98 d5 be
       -0.0086182095 1.2640364 -0.4470383 -0.41717654

fc2.bias f4 [2]
000000 7d 66 cb 3e b7 7e 85 3e
       0.3972663 0.26073238
