backend/models/model2.pth (torch, 196936 bytes, 4 tensors)

fc1.weight f4 [128, 378]
-0.4154312 -0.38514704 -0.37823308 -0.29664358 -0.334138 -0.36267635 -0.33274367 -0.31003407
-0.25095233 -0.22343859 -0.20243816 -0.13342464 -0.013634286 0.05018802 0.030390032 0.029925862
0.03525291 -0.0024831512 0.021468224 0.0066815424 0.028163599 -0.40864715 -0.33628842 -0.3566087
-0.36101726 -0.3849192 -0.34153286 -0.22216515 -0.26728025 -0.17850804 -0.23587428 -0.15827744
-0.1384535 -0.14319728 -0.13860439 -0.03607264 0.014415912 0.0055498765 0.03589564 0.044746425
-0.004274777 -0.04469605 -0.37240443 -0.31367898 -0.39302054 -0.2715396 -0.36851832 -0.3389193
-0.30538076 -0.239528 -0.25241905 -0.23929223 -0.13218406 -0.08842188 -0.08382127 -0.21276434
-0.16440353 -0.14802513 0.0043525794 0.035158712 0.011403824 -0.014575938 0.050000675 -0.33084762
-0.38563025 -0.4049178 -0.33075777 -0.40797898 -0.34455165 -0.30908594 -0.334741 -0.13818915
-0.18362184 -0.15666659 -0.059030052 -0.10928621 -0.16297 -0.16803508 -0.12558435 -0.08258394
-0.039172642 0.026906723 -0.036641244 -0.032834273 -0.36927092 -0.3493212 -0.3719743 -0.38067168
-0.31638917 -0.37691188 -0.29168168 -0.25429988 -0.18044336 -0.20927536 -0.1102794 -0.12771717
-0.12767598 -0.11406865 -0.12088632 -0.15642482 -0.06976145 -0.050764482 -0.047667965 -0.061922386
-0.032376017 -0.296152 -0.3068479 -0.36021417 -0.32591906 -0.25167578 -0.2825794 -0.29675716
-0.19229262 -0.28038472 -0.22004099 -0.08863721 -0.071882956 -0.010074378 -0.05799233 -0.008077413
-0.06816346 -0.06503072 -0.019124502 -0.035348237 -0.01988954 -0.03138901 -0.30893275 -0.24805026
-0.2590217 -0.24813381 -0.24002041 -0.26565394 -0.1729837 -0.2293405 -0.11840489 -0.10092955
-0.03733384 -0.069716096 -0.05703517 -0.062130835 -0.020663494 -0.04468007 -0.059778776 -0.050806705
-0.012337642 0.03974518 0.06479002 -0.1971684 -0.19399059 -0.22481962 -0.19354492 -0.15541895
-0.14516264 -0.19964091 -0.1891199 -0.14188576 -0.05988095 -0.07846832 0.06042765 0.0055623823
-0.018953249 0.025573298 -0.021384662 0.023822572 0.019024506 0.02836041 0.054544047 0.04491147
-0.14679988 -0.25077295 -0.17082368 -0.1676487 -0.18086463 -0.08736079 -0.17556134 -0.048234724
-0.058019497 -0.04008362 -0.025385717 0.08243157 0.122013815 0.047620315 0.09271303 -0.032500245
-0.029313562 0.064611584 0.09408091 0.08259578 0.14851911 -0.156068 -0.1457718 -0.15945894
-0.11189695 -0.15439749 -0.11092818 -0.103922844 -0.05412312 0.021097446 0.02255351 0.03208171
0.11068905 0.14141102 0.14021964 0.0436173 -0.03796365 0.04803677 0.03337071 0.090848945
0.16370676 0.19870813 -0.18477772 -0.15843779 -0.15944134 -0.14423293 -0.14428599 -0.06447574
0.0074462816 0.0154110445 0.06725123 0.089589395 0.14524281 0.3092933 0.24060695 0.17076233
0.16157635 0.043277394 0.0650472 0.21106504 0.14548025 0.18165289 0.22191203 -0.03685285
-0.17116047 -0.13972273 -0.054041963 -0.09928531 -0.016448425 -0.023373306 0.062960654 0.10806554
0.14847426 0.30492324 0.38780722 0.2846077 0.23613055 0.24401687 0.18200582 0.14189462
0.087166786 0.10916804 0.18042414 0.3139982 -0.042587046 -0.14660259 -0.20747936 -0.035655607
00000000: 66b3 d4be fe31 c5be c4a7 c1be abe1 97be
00000010: 2314 abbe b7b0 b9be 615d aabe c9bc 9ebe
00000020: d37c 80be 16cd 64be f34b 4fbe 78a0 08be
00000030: 5762 5fbc f491 4d3d 84f4 f83c 1527 f53c
00000040: 5b65 103d 5dbc 22bb 21de af3c d7f0 da3b
00000050: 59b7 e63c 333a d1be ff2d acbe 6a95 b6be
00000060: 41d7 b8be 2114 c5be 65dd aebe 437f 63be
00000070: f5d8 88be d0ca 36be 0789 71be 7b13 22be
00000080: c1c6 0dbe 4fa2 12be 4fee 0dbe e8c0 13bd
00000090: b830 6c3c bddb b53b 4e07 133d 0748 373d
000000a0: 6e13 8cbb 3513 37bd cbab bebe 889a a0be
000000b0: fd39 c9be 3d07 8bbe 6fae bcbe d586 adbe
000000c0: de5a 9cbe d446 75be 123d 81be 0609 75be
000000d0: 425b 07be 8816 b5bd 7caa abbd e5de 59be
000000e0: 6659 28be e693 17be 15a0 8e3b 9502 103d
000000f0: 1bd7 3a3c eacf 6ebc 82cd 4c3d dc64 a9be
00000100: 5471 c5be 6351 cfbe 1559 a9be 9fe2 d0be
00000110: 1369 b0be 8340 9ebe 2c63 abbe 7581 0dbe
00000120: 5d07 3cbe 356d 20be 7fc9 71bd 73d1 dfbd
00000130: 9ce1 26be 6311 2cbe 2f99 00be c521 a9bd
00000140: 7e73 20bd 7d6b dc3c 2115 16bd 3b7d 06bd
00000150: 1411 bdbe 3ada b2be 6a73 bebe 66e7 c2be
00000160: c3fd a1be 98fa c0be 4d57 95be 9833 82be
00000170: 25c6 38be 484c 56be 2bda e1bd 4ac8 02be
00000180: 7ebd 02be d39c e9bd 3f93 f7bd d42d 20be
00000190: 17df 8ebd 6bee 4fbd 7c3f 43bd 54a2 7dbd
000001a0: b79c 04bd 3ca1 97be 2b1b 9dbe fe6d b8be
000001b0: ddde a6be a6db 80be 3fae 90be 8ef0 97be
000001c0: 5be8 44be 968e 8fbe 6d52 61be 6d87 b5bd
000001d0: 5f37 93bd 010f 25bc 5e89 6dbd 2057 04bc
000001e0: 4999 8bbd d32e 85bd fdaa 9cbc 50c9 10bd
000001f0: 63ef a2bc c391 00bd 6f2c 9ebe e300 7ebe
00000200: 7e9e 84be ca16 7ebe e9c7 75be cb03 88be
00000210: a422 31be 3cd8 6abe 437e f2bd 27b4 cebd
00000220: 5eeb 18bd 50c7 8ebd b69d 69bd e77c 7ebd
00000230: 7d46 a9bc 7302 37bd 97da 74bd b11a 50bd
00000240: d223 4abc d8cb 223d a1b0 843d 83e6 49be
00000250: 78a5 46be 1d37 66be a430 46be 2526 1fbe
00000260: 84a5 14be ab6e 4cbe a6a8 41be 804a 11be
00000270: ba45 75bd 00b4 a0bd fc82 773d a544 b63b
00000280: d843 9bbc 187f d13c e32e afbc 8e27 c33c
00000290: 48d9 9b3c 1754 e83c 9469 5f3d 17f5 373d
000002a0: b552 16be 5065 80be 67ec 2ebe 1aac 2bbe
000002b0: 9434 39be 37ea b2bd 5ac6 33be c691 45bd
000002c0: daa5 6dbd b92e 24bd b5f5 cfbc e2d1 a83d
000002d0: 61e2 f93d 850d 433d 54e0 bd3d fa1e 05bd
000002e0: ff22 f0bc 1453 843d 7ead c03d fa27 a93d
000002f0: 6515 183e 4ad0 1fbe 3445 15be 3449 23be
00000300: 3a2a e5bd 601a 1ebe 502e e3bd 80d5 d4bd
00000310: 34b0 5dbd 8dd4 ac3c 23c2 b83c 1c68 033d
00000320: f1b0 e23d 0dce 103e bd95 0f3e 0ea8 323d
00000330: c67f 1bbd 34c2 443d baaf 083d 030f ba3d
00000340: bfa2 273e 257a 4b3e 5f36 3dbe 843d 22be
00000350: 9744 23be ccb1 13be b5bf 13be db0b 84bd
00000360: f0ff f33b 9b7e 7c3c 03bb 893d a57a b73d
00000370: 88ba 143e b15b 9e3e ab61 763e 52dc 2e3e
00000380: 4574 253e a343 313d 7737 853d 6f21 583e
00000390: c6f8 143e 3703 3a3e e83c 633e 04f3 16bd
000003a0: b144 2fbe 7a13 0fbe 1b5b 5dbd 1956 cbbd
000003b0: d9be 86bc 6079 bfbc 84f1 803d 7751 dd3d
000003c0: a309 183e e61e 9c3e ab8e c63e 1ab8 913e
000003d0: 35cc 713e 8fdf 793e bc5f 3a3e d34c 113e
000003e0: 8084 b23d 7e93 df3d 1bc1 383e 5fc4 a03e
000003f0: c16f 2ebd fd1e 16be 7875 54be 9d0b 12bd

fc1.bias f4 [128]
0.6795581 0.62768054 0.638829 0.66246384 0.6712082 0.6500286 0.44792548 0.19986196
0.30647686 0.38540694 0.6904112 0.6756328 0.49350688 0.67235065 0.18715076 0.65367234
0.6860112 0.5539669 0.17732547 0.21027924 0.6576079 -0.080409564 0.1923593 0.5530271
0.5952282 0.20632292 0.5717767 0.36785427 0.15061037 0.6538362 0.5555773 0.2241467
0.6601961 0.5687895 0.20301913 0.6066249 0.7006922 -0.056405224 0.5794481 0.6442707
0.5258447 0.7013035 0.21547338 0.67901754 0.16352762 0.5111536 0.49441183 0.53515255
0.66264445 0.5105602 0.53687084 0.5309537 0.6374182 0.6424727 0.5781681 0.20053747
0.48972875 0.656411 0.6002572 0.20080878 -0.05500754 0.5457732 0.1807588 0.63589424
0.36736456 0.19939573 0.6633745 0.5450201 0.53224385 0.58873385 0.19268571 0.62081563
0.4573384 0.70027256 0.20762025 0.6893488 0.1780306 0.50492096 0.21613821 0.5520291
0.6676478 0.57188725 0.21410526 0.60097796 0.19969483 0.54061115 0.33227608 0.6380494
0.63736564 0.2492873 0.5568054 0.60987407 0.19706887 0.19580536 0.20017144 0.62907904
0.68508714 0.5872388 0.62890387 0.59424156 0.29456574 0.6110723 0.20364113 0.6522337
0.5673416 0.40122434 0.56751055 0.47642446 0.45401585 0.17586976 0.71560794 0.66483104
-0.055794314 0.32462567 0.66171193 0.55893266 0.49962115 0.72121483 0.6673194 0.6449671
0.43800423 0.19080685 0.5490065 0.48673645 0.5605927 0.2260218 0.45893118 0.21218216
00000000: 85f7 2d3f acaf 203f 4c8a 233f 3b97 293f
00000010: 4dd4 2b3f 4668 263f 7d56 e53e 9da8 4c3e
00000020: 89ea 9c3e 0f54 c53e cabe 303f 45f6 2c3f
00000030: efac fc3e 2c1f 2c3f 73a4 3f3e 1257 273f
00000040: 6e9e 2f3f c6d0 0d3f cf94 353e 7153 573e
00000050: fe58 283f c5ad a4bd d6f9 443e 2f93 0d3f
00000060: e060 183f 5146 533e f55f 123f 6557 bc3e
00000070: 9b39 1a3e cf61 273f 503a 0e3f b686 653e
00000080: 9d02 293f 309c 113f 3fe4 4f3e c54b 1b3f
00000090: 9060 333f 2a09 67bd b656 143f edee 243f
000000a0: c29d 063f a088 333f 0ea5 5c3e 18d4 2d3f
000000b0: c973 273e f6da 023f 8c23 fd3e c2ff 083f
000000c0: 11a3 293f 13b4 023f 5e70 093f 95ec 073f
000000d0: d72d 233f 1779 243f d302 143f b259 4d3e
000000e0: babd fa3e 8d0a 283f 75aa 193f d1a0 4d3e
000000f0: 964f 61bd cbb7 0b3f d618 393e f7c9 223f
00000100: 3517 bc3e 652e 4c3e e9d2 293f 7086 0b3f
00000110: 2241 083f 43b7 163f 674f 453e c6ed 1e3f
00000120: 4228 ea3e 1045 333f 679a 543e 2a79 303f
00000130: a74d 363e 8042 013f 5653 5d3e c751 0d3f
00000140: f7ea 2a3f 3467 123f 693e 5b3e b1d9 193f
00000150: cd7c 4c3e 7e65 0a3f 1720 aa3e 3557 233f
00000160: 652a 233f 2c45 7f3e cc8a 0e3f b520 1c3f
00000170: 6ccc 493e 3381 483e bef9 4c3e 530b 213f
00000180: df61 2f3f 4855 163f d8ff 203f 3720 183f
00000190: 52d1 963e 3c6f 1c3f 4d87 503e caf8 263f
000001a0: 4d3d 113f 476d cd3e 5f48 113f e8ed f33e
000001b0: c474 e83e 3417 343e 1532 373f 5e32 2a3f
000001c0: 9488 64bd 5635 a63e f465 293f 3616 0f3f
000001d0: 58ce ff3e 89a1 383f 72d5 2a3f 901c 253f
000001e0: 1742 e03e df62 433e b18b 0c3f 8535 f93e
000001f0: 0183 0f3f 4272 673e 07f9 ea3e 4846 593e

fc2.weight f4 [2, 128]
0.5311111 0.5279241 0.6341418 0.55301917 0.5486678 0.59651697 0.46192706 -0.54407555
0.18830203 0.46748763 0.5482714 0.5399178 0.48999026 0.53312516 -0.6126051 0.53233165
0.54384726 0.5848026 -0.47940812 -0.21450196 0.5546368 -0.04254934 -0.14892764 0.565545
0.38250718 -0.31007776 0.6725734 0.46580693 -0.27683756 0.6154514 0.33570307 -0.46932194
0.5727462 0.48302805 -0.47990263 0.40565628 0.53978837 0.08567613 0.5373951 0.58047706
0.31273606 0.54957134 -0.508127 0.5723789 -0.39713734 0.47866094 0.4614487 0.49251255
0.5049576 0.63994324 0.68531775 0.2900178 0.43603426 0.4560927 0.40849116 -0.2968486
0.2540722 0.690317 0.64069444 -0.25938424 0.08789347 0.42864758 -0.38771045 0.64458025
0.42654303 -0.20414813 0.48525128 0.5800023 0.29951072 0.54247946 -0.2132977 0.43029982
0.347707 0.5837332 -0.622966 0.5306252 -0.425441 0.51657975 -0.46658853 0.52144045
0.5289139 0.49086896 -0.1172985 0.4119454 -0.48092735 0.24237444 0.251251 0.6939261
0.55042523 -0.10754445 0.31433207 0.3583495 -0.3091368 -0.6241098 -0.35896963 0.64593077
0.6058796 0.37811977 0.51716363 0.57522887 -1.0309569 0.5892137 -0.5536679 0.45224187
0.5047501 0.5493458 0.4032176 0.23162332 0.48388672 -0.41281298 0.57891816 0.630405
-0.039822534 -0.99610335 0.5258184 0.52456754 0.48963776 0.54643613 0.5707499 0.47917125
-0.78628534 -0.37504423 0.23531169 0.541711 0.25374487 -0.2243261 0.45503572 -0.39193967
0.6029816 0.6163772 0.54167485 0.46087596 0.5790806 0.53363603 0.18672802 -0.17649756
-0.82414854 -0.18114755 0.59864485 0.5694891 0.25725424 0.54272985 -0.112469204 0.61651486
0.55388695 0.32240564 -0.3683345 -0.6806813 0.58888716 -0.02536466 -0.34637824 0.42144412
0.54763967 -0.57178634 0.40093914 -0.06826041 -0.29531032 0.6058453 0.49958974 -0.47276106
0.60258734 0.3935506 -0.37262803 0.51514846 0.551615 0.0073758005 0.48426804 0.5634062
0.5573408 0.57339644 -0.46394023 0.60963935 -0.20515214 0.40027246 0.8870857 0.37974247
0.5996834 0.4045456 0.4222107 0.5938274 0.55344605 0.49352074 0.5874748 -0.35949686
0.58802277 0.58263624 0.67942387 -0.33974066 0.0010858572 0.2982342 -0.10983424 0.54711306
-0.0034937635 -0.4166321 0.52240825 0.35885057 0.46451905 0.6145023 -0.54567826 0.50943565
0.07137329 0.54188794 -0.14916952 0.5942166 -0.06242958 0.25999445 -0.47575185 0.29020151
0.5631633 0.53626084 -0.305775 0.490235 -0.19523132 0.4865337 -0.7530265 0.55690074
0.58796734 -0.80614966 0.44367582 0.4555206 -0.3800612 -0.3846633 -0.39333123 0.5957775
0.5303229 0.4678008 0.61513895 0.69522893 0.0733989 0.50178117 -0.28511572 0.5447823
0.68158954 -0.19332717 0.54378027 0.62323093 0.13346316 -0.26680544 0.52915466 0.5790035
0.059396606 0.15081832 0.5571188 0.36077657 0.25357977 0.5630325 0.6091463 0.5088069
1.0549556 -0.5233178 0.50498253 0.27994904 0.42266703 -0.47162747 0.1105445 -0.34476328
00000000: e6f6 073f 0926 073f 1e57 223f aa92 0d3f
00000010: 7e75 0c3f 56b5 183f b481 ec3e 8948 0bbf
00000020: 3fd2 403e 8a5a ef3e 845b 0c3f 0e38 0a3f
00000030: 01e0 fa3e e47a 083f b0d3 1cbf e346 083f
00000040: 9339 0b3f a0b5 153f fb74 f5be 67a6 5bbe
00000050: adfc 0d3f 3748 2ebd 7d80 18be 8fc7 103f
00000060: fbd7 c33e 83c2 9ebe c52d 2c3f 3f7e ee3e
00000070: a7bd 8dbe 398e 1d3f 46e1 ab3e f74a f0be
00000080: 7f9f 123f 744f f73e ccb5 f5be 2eb2 cf3e
00000090: 922f 0a3f f876 af3d ba92 093f 259a 143f
000000a0: f11e a03e b5b0 0c3f 9c14 02bf 6c87 123f
000000b0: 9655 cbbe 0c13 f53e 0143 ec3e 9b2a fc3e
000000c0: e744 013f 52d3 233f fc70 2f3f 377d 943e
000000d0: e23f df3e fb84 e93e c125 d13e 8afc 97be
000000e0: c015 823e 9db8 303f 8d04 243f 03ce 84be
000000f0: 7e01 b43d b277 db3e fc81 c6be 3603 253f
00000100: d963 da3e 350c 51be db72 f83e 087b 143f
00000110: 7859 993e efdf 0a3f b66a 5abe 4250 dc3e
00000120: a706 b23e 8a6f 153f b37a 1fbf 0ed7 073f
00000130: 67d3 d9be 923e 043f b1e4 eebe 1f7d 053f
00000140: e766 073f 2d53 fb3e 323a f0bd 82ea d23e
00000150: 1c3c f6be 0131 783e f9a3 803e 24a5 313f
00000160: abe8 0c3f 4440 dcbd 22f0 a03e 9679 b73e
00000170: 2e47 9ebe a9c5 1fbf deca b7be b85b 253f
00000180: ed1a 1b3f ea98 c13e d664 043f 3342 133f
00000190: 65f6 83bf b6d6 163f 2ebd 0dbf 3f8c e73e
000001a0: 4d37 013f eda1 0c3f 8a72 ce3e aa2e 6d3e
000001b0: 00c0 f73e 395c d3be fb33 143f 3962 213f
000001c0: f41c 23bd a100 7fbf 099c 063f 0f4a 063f
000001d0: cdb1 fa3e 3de3 0b3f aa1c 123f ef55 f53e
000001e0: ff49 49bf cc05 c0be 8cf5 703e 92ad 0a3f
000001f0: d9ea 813e beb5 65be 71fa e83e 51ac c8be
00000200: 015d 1a3f e5ca 1d3f 34ab 0a3f eff7 eb3e
00000210: a03e 143f 5f9c 083f a135 3f3e c7bb 34be
00000220: 66fb 52bf be7e 39be ca40 193f 0aca 113f
00000230: d4b6 833e 58f0 0a3f 4156 e6bd ebd3 1d3f
00000240: 89cb 0d3f 5a12 a53e 5796 bcbe 2141 2ebf
00000250: 4fc1 163f 8cc9 cfbc 7d58 b1be 86c7 d73e
00000260: 1d32 0c3f 9760 12bf e547 cd3e 1dcc 8bbd
00000270: ea32 97be ad18 1b3f 3aca ff3e bd0d f2be
00000280: 2a43 1a3f 777f c93e 1ac9 bebe c5e0 033f
00000290: a436 0d3f b3b0 f13b fbf1 f73e 643b 103f
000002a0: e3ad 0e3f 1cca 123f 9389 edbe 5311 1c3f
000002b0: 6713 52be 83f0 cc3e 0c18 633f 9b6d c23e
000002c0: da84 193f 9a20 cf3e 002c d83e 1305 183f
000002d0: a4ae 0d3f c0ae fc3e c064 163f f90f b8be
000002e0: a988 163f a627 153f b9ee 2d3f 7df2 adbe
000002f0: 5253 8e3a 27b2 983e c6f0 e0bd 9a0f 0c3f
00000300: a0f7 64bb cd50 d5be 8cbc 053f 43bb b73e
00000310: 71d5 ed3e 0650 1d3f 92b1 0bbf 606a 023f
00000320: 292c 923d 2bb9 0a3f e5bf 18be 941e 183f
00000330: 29b6 7fbd fe1d 853e bf95 f3be 4b95 943e
00000340: 782b 103f 6448 093f 8a8e 9cbe 1500 fb3e
00000350: b8ea 47be f21a f93e 58c6 40bf 0c91 0e3f
00000360: 0785 163f d35f 4ebf 7a29 e33e ff39 e93e
00000370: 6297 c2be 97f2 c4be b662 c9be e084 183f
00000380: 3ec3 073f 9683 ef3e bf79 1d3f 86fa 313f
00000390: 2a52 963d bb74 003f b0fa 91be da76 0b3f
000003a0: a77c 2e3f 8ff7 45be 2f35 0b3f 108c 1f3f
000003b0: 91aa 083e b99a 88be ae76 073f 9339 143f
000003c0: db49 733d 1e70 1a3e 569f 0e3f b5b7 b83e
000003d0: 35d5 813e e622 103f 03f1 1b3f 2b41 023f
000003e0: c908 873f 28f8 05bf 8946 013f 7b55 8f3e
000003f0: d067 d83e 2879 f1be 2865 e23d d084 b0be

fc2.bias f4 [2]
0.41825807 0.34370953
00000000: ec25 d63e b2fa af3e
